results/model_weights.pth (torch, 39492 bytes, 5 tensors)

fc1.weight f4 [128, 6]
000000 c4 44 9b be fb b5 9a bd 7f 2d 94 be 1c 30 9e be
       -0.30325902 -0.07554241 -0.2894096 -0.3089608
000010 8f e3 8e 3c ef e1 79 3e 72 36 9f be ac db 3c be
       0.017442493 0.24402593 -0.31096226 -0.18443173
000020 b2 7b b1 be ce 22 aa 3e 38 0b b0 3d 4f 39 24 3e
       -0.34664685 0.3322968 0.0859589 0.16037486
000030 83 3f 43 be 49 45 81 be 4a 55 5a be 7c b1 1b 3c
       -0.19067197 -0.25248173 -0.21321598 0.009502765
000040 44 9b a3 bd b4 e6 ac 3e 69 e0 ca be 26 cd be 3d
       -0.07988599 0.33769763 -0.39624336 0.09316473
000050 52 39 3b bd ee 28 96 be 75 d8 ea 3d 0b 0a 35 be
       -0.04570896 -0.29328102 0.11467067 -0.17679612
000060 52 92 d6 bd 38 c2 78 3e ed d8 a4 3e 3c 8f 67 bd
       -0.10477127 0.24292839 0.3219675 -0.056533083
000070 31 c0 fd 3d 23 dd bd be b4 c0 e1 3d ff 8b 83 3d
       0.12390173 -0.37082776 0.11023083 0.064231865
000080 26 37 58 3e cf f7 75 3e ef 06 34 3e 32 f0 9c 3e
       0.21114787 0.24020313 0.1758077 0.30652004
000090 4b c6 52 be 07 0b 10 3c af a7 86 be e3 c7 92 3e
       -0.20583455 0.008791692 -0.26299807 0.28668126
0000a0 ff 8a 80 3e 66 27 b5 3e c9 52 4d 3d 7a ee a8 be
       0.25106046 0.3538162 0.05012778 -0.32994443
0000b0 ef e8 a4 bd 9c 3b a4 3e 8f 98 a4 bd ce 0c 6e be
       -0.08052241 0.32076728 -0.08036911 -0.23247072
0000c0 77 ac 47 3e 17 3d 8b be 09 84 a7 3c b9 4e fd bd
       0.19499384 -0.27195045 0.020448701 -0.12368531
0000d0 45 54 ae be e3 c1 78 be 64 1c 35 be 11 cb 76 be
       -0.34048668 -0.24292712 -0.17686611 -0.24100901
0000e0 5c 94 cd bd 5e f0 a9 be 13 6c a7 bd d6 55 31 3e
       -0.10038063 -0.33191198 -0.081749104 0.173179
0000f0 85 b5 a8 be f3 31 de 3d 94 cf 21 bd a5 c9 8b bd
       -0.32950988 0.10849371 -0.039504603 -0.0682557
000100 9e 5c 01 3e 48 2c e9 3d 8e 0d c4 3e 15 b4 c7 be
       0.12632987 0.11385399 0.3829159 -0.3900458
000110 e2 0a fb bd 33 2f 14 3d ee d3 80 39 dc b3 b2 3e
       -0.12257935 0.036177825 0.00024571962 0.34902847
000120 f1 6c af 3e 31 11 8b 3e 4d 8e 92 3d 92 d6 d7 bd
       0.34262803 0.27161554 0.07156048 -0.10538973
000130 54 c2 e3 bc 5a 2f 94 3c d6 3e 1e 3e b6 0b 90 be
       -0.027802624 0.018088985 0.15453658 -0.28133935
000140 94 27 87 be ca f1 88 3d b9 8f 59 be 4f 05 c1 be
       -0.26397383 0.066867426 -0.21246232 -0.37699363
000150 1a 8c 4a be e0 a5 b7 bd ef eb 7a be 26 4f 8c be
       -0.19780007 -0.08967185 -0.24504064 -0.27404135
000160 23 73 40 be 0a f7 a1 3e d7 36 a6 3e 35 5f 9a 3e
       -0.18793921 0.31633788 0.32463714 0.30150762
000170 68 ec 9e 3e 01 11 a1 3e ac cd ae be 70 c7 7c be
       0.3103974 0.31458285 -0.3414129 -0.24685454
000180 a2 e2 4c 3e 9d ba 0b bd 60 7b e2 bd aa ef 26 3e
       0.20008329 -0.034113515 -0.11058688 0.16302362
000190 44 21 95 be 01 e7 fb bd ad 81 87 3a 2c c7 d2 3d
       -0.29126942 -0.1229992 0.0010338329 0.10291895
0001a0 b2 43 88 bd 49 45 25 3e 04 d1 02 be ba e7 b4 be
       -0.06653537 0.16139711 -0.12775046 -0.35333043
0001b0 5d 5f 44 3e f5 83 a3 be 93 97 0d 3e 31 d6 fa bc
       0.19177003 -0.31936613 0.13827352 -0.030619713
0001c0 34 a2 bd be f2 e7 73 bd e0 25 8e bd 54 e8 95 be
       -0.37037814 -0.059547372 -0.06940818 -0.29278815
0001d0 a3 f4 82 3d 46 d8 a0 3e bb de d0 bd bb 36 99 be
       0.06394317 0.31415004 -0.101987325 -0.2992457
0001e0 f2 28 54 3d 9a ab 37 3e 3c 0f b6 bd 02 c3 8e 3e
       0.05179686 0.17936555 -0.088896245 0.27883154
0001f0 8b 92 59 3c 0d ea ac 3e 48 78 76 3e cb 9a 0c 3e
       0.0132795675 0.33772317 0.24069321 0.13730924
000200 56 5b 70 3e 59 ae ad 3d 76 49 64 3e d2 92 28 be
       0.23472342 0.0848052 0.22293648 -0.16462258
000210 3f 97 8d bd f9 c5 97 3e 24 96 46 be a4 0c 99 3e
       -0.069136135 0.2964323 -0.19393212 0.29892457
000220 fc 8b d0 3e c3 37 38 be 61 8d b5 be 42 1b 6a bc
       0.407318 -0.17990021 -0.35459426 -0.014288725
000230 55 f6 87 3d e4 c5 c2 3d 49 c0 ab be 57 b1 8f be
       0.06638781 0.09510401 -0.3354514 -0.28064987
000240 45 47 90 be d4 05 a0 bd 6f 4f 88 3c 44 95 24 3c
       -0.28179374 -0.078136116 0.01663944 0.010045353
000250 da 67 ec 3c cf 52 3c bd ad ad 7e 3e 1c cd 16 3e
       0.028858114 -0.04597741 0.2487094 0.1472668
000260 1e 4a a1 3e f9 0a 7a 3e 1b 02 af be ce 84 ae 3d
       0.3150186 0.24418248 -0.34181294 0.08521424
000270 ba 9c a1 3d b9 95 77 be 91 09 45 3e 18 d5 c1 3e
       0.07891221 -0.24178208 0.1924193 0.3785789
000280 08 fc cd 3e d2 7d af 3e 6c f0 a3 3e 0a 2d 1a bc
       0.40231347 0.3427568 0.32019365 -0.009410152
000290 92 ec a7 3d 19 6d 92 be 8b 16 f2 bc 38 cd 49 be
       0.08199419 -0.2859886 -0.029551765 -0.19707191
0002a0 07 15 ad be 6d 83 c8 3e 45 80 11 3e 13 ef c6 be
       -0.33805105 0.3916277 0.14209087 -0.38854274
0002b0 95 f1 c1 3e 25 3f bd 3e df a1 2d bc 13 d9 0d be
       0.37879625 0.36962238 -0.010597675 -0.13852338
0002c0 34 1c bd 3e e9 75 ac be d6 7e 45 3e ba 93 c3 3e
       0.3693558 -0.33683708 0.19286665 0.38198644
0002d0 95 cd 91 3e 73 b0 13 3e bd a1 bb 3e 72 7a c5 be
       0.2847716 0.14422779 0.36646834 -0.3856998
0002e0 9d a0 dd bc 74 8a ab 3a 2e 37 5a be df d0 12 bd
       -0.027054125 0.0013087527 -0.21310112 -0.035843726
0002f0 3c af 94 3d a4 cf 94 bd 87 0a 94 3e df e8 c1 be
       0.07259986 -0.07266167 0.28914282 -0.3787298
000300 01 7c 65 be 62 13 b1 3d e1 39 b3 3d 60 ef 44 be
       -0.22410585 0.08646275 0.08751274 -0.1923194
000310 ca 48 80 3e 8a f5 c8 bd b0 c4 3a 3e 3f d1 d0 be
       0.25055534 -0.09812458 0.18239093 -0.40784642
000320 5f 56 31 3e 29 fb 40 be 68 6f a5 3e 2d 25 37 be
       0.17318104 -0.1884581 0.3231156 -0.17885275
000330 4b 54 4c 3e 24 5b a2 3e 23 7d 26 3e c4 19 dd 3d
       0.1995403 0.3171016 0.16258673 0.1079593
000340 fd d5 e8 3c 59 ca cf bd d9 fa d0 3d 91 34 e2 bd
       0.02842235 -0.10146017 0.102040954 -0.110451825
000350 71 2e 88 bd c1 d0 9e be 38 52 74 3e 98 5f 2e 3e
       -0.06649483 -0.31018642 0.23859489 0.17028654
000360 5c 94 4d 3e c3 4a e4 bd a2 65 c9 3e ec ce 3a 3d
       0.20076126 -0.11147072 0.39335352 0.045607492
000370 a1 0a 51 3e 0b 94 cf 3e 73 21 65 3e 7e 7d c4 be
       0.20414211 0.40542635 0.22376041 -0.38376993
000380 18 f8 d0 3d 2f 07 1f 3d 38 60 f7 bd 47 ae 30 be
       0.1020357 0.03882521 -0.12078899 -0.17253982
000390 ad b1 b0 3e f6 ab 05 be bb d6 10 be 4f 10 e3 bd
       0.34510556 -0.13053879 -0.14144413 -0.11087095
0003a0 56 50 69 be aa 56 92 be 5e 6a 0c bd 5b e6 a8 be
       -0.22784552 -0.28581744 -0.034281127 -0.32988247
0003b0 4a d3 cb be b2 07 83 be ec c4 15 3e 97 44 a7 3e
       -0.39809638 -0.2559181 0.14625901 0.32669517
0003c0 f5 e8 c8 3c 7c 38 1e be 2e 78 36 bd 4d 22 b3 bd
       0.024525145 -0.15451235 -0.044548206 -0.08746777
0003d0 c5 52 0f 3e 88 a1 5d 3d a0 8b c1 be af 6d 2b be
       0.13996418 0.054109126 -0.37801838 -0.1674106
0003e0 e5 1b be bc a9 eb 5c 3e 57 e5 b7 be ac bc 9e 3e
       -0.02320666 0.21574272 -0.3591716 0.3100332
0003f0 94 f1 8a be 4c 80 82 3e c8 0e 99 be d9 e2 64 be
       -0.27137434 0.25488508 -0.2989409 -0.2235216

fc1.bias f4 [128]
000000 06 22 1b be c5 01 b8 be 19 79 b1 be 11 47 a5 3e
       -0.15149698 -0.3593885 -0.34662703 0.32280782
000010 b4 1a 84 be fb 17 34 be 25 ab 7b bd e5 cb 64 3d
       -0.25801623 -0.17587273 -0.061442513 0.05585851
000020 26 49 9d 3d 4a 4d 9c be 75 e0 b0 be 42 ba 06 be
       0.076799676 -0.30527717 -0.34546247 -0.13156989
000030 90 01 c9 3e 40 1b b7 be a7 14 a1 be 29 3c dd bd
       0.39259005 -0.35762978 -0.3146107 -0.1080249
000040 da d0 78 be 22 9a 4b bd c5 05 67 be d4 b2 2c 3e
       -0.2429842 -0.04970754 -0.22560795 0.16865093
000050 fa f4 ac bb 6e a1 f9 bd 99 b1 58 3b a1 20 dd 3d
       -0.005278227 -0.121889934 0.003306484 0.10797239
000060 b5 91 86 3e 82 a1 90 3e a9 f8 bb bd a9 68 73 3e
       0.2628304 0.2824822 -0.091782875 0.23770393
000070 e8 a2 bd be 06 60 c5 3e b8 ff a5 be 0a 64 94 bd
       -0.3703835 0.38549823 -0.3242166 -0.072456434
000080 68 cc 23 be fa 5d 9e be 41 26 b4 be 34 d6 f6 bd
       -0.15995944 -0.30931073 -0.35185435 -0.12052575
000090 b9 23 92 be ea 33 d6 bc 9c e0 41 3e fe 1e 10 be
       -0.2854288 -0.026147801 0.18933338 -0.14074323
0000a0 57 90 a3 be fb 9a a9 be c4 e1 b5 be 0a a3 bf be
       -0.3194606 -0.33126053 -0.35523808 -0.37429076
0000b0 25 53 c8 be 97 d9 50 be c6 b2 2e be 3b c2 bd bd
       -0.39125934 -0.20395504 -0.17060384 -0.09265562
0000c0 35 c5 93 3c e2 06 0b bd 0e de ef 3d 1c 54 fc bc
       0.018038372 -0.03394211 0.117122754 -0.030801825
0000d0 e2 8f a9 be 63 f1 85 3c 89 90 08 be b2 97 b5 3d
       -0.33117586 0.016350454 -0.13336386 0.08866824
0000e0 64 d9 92 3e 01 1b cf 3e b7 87 0a 3d 42 d8 08 3e
       0.2868148 0.4045029 0.033820834 0.13363746
0000f0 c0 d7 6c 3e f4 88 3c bc 0b f1 33 3e 21 f0 23 bc
       0.23129177 -0.011507262 0.1757242 -0.010005982
000100 a6 f2 4a bd 47 29 d4 3d 75 9f 9c 3e 21 a9 a7 be
       -0.049547814 0.103594355 0.30590406 -0.32746223
000110 0b e1 4a 3d 25 40 00 be f6 fe 9e 3e 24 05 05 be
       0.049531024 -0.12524469 0.31053895 -0.12990242
000120 49 06 b6 3e 14 84 4a be 7a d1 9b 3e e1 1c 2b be
       0.3555167 -0.19776946 0.30433255 -0.16710235
000130 80 b9 c8 bc c2 9b ab be 3a 18 ad be 3f c5 17 3e
       -0.024502516 -0.3351727 -0.33807546 0.14821337
000140 5f c0 83 3e b4 2d 74 bd 7f 93 b3 be 98 2a bc be
       0.25732705 -0.0596139 -0.35073468 -0.36751246
000150 4c 3a 26 be 9a 0e 54 be b7 be bc 3e 06 e1 aa be
       -0.16233176 -0.20708695 0.36864254 -0.33374804
000160 f5 62 61 bc a2 7f c7 3d 0e 83 61 3e 61 79 1a 3b
       -0.013756503 0.09741141 0.2202265 0.0023570883
000170 8e 36 6c 3b a6 26 ab be f7 29 ab 3e c6 8a ef bc
       0.003604326 -0.33427924 0.33430454 -0.029240977
000180 74 80 1d be 03 66 84 3e 67 84 98 3e 0e e1 61 be
       -0.15381032 0.2585908 0.29788515 -0.22058508
000190 04 85 f5 3d 28 7e a4 3e 59 60 64 be ab c4 39 be
       0.11988261 0.321275 -0.22302379 -0.18141429
0001a0 0f 7c 56 3e 79 77 46 3d c6 3d 7f bd 2d 21 2c be
       0.20945762 0.04845378 -0.06231477 -0.1680953
0001b0 f5 cc 4c 3e 01 b0 65 bd 04 50 13 3e 51 f2 1c be
       0.2000006 -0.056076054 0.14385992 -0.15326811
0001c0 48 e4 78 be 89 31 ce 3e 1f e8 1d be 35 29 f6 3b
       -0.24305832 0.40272167 -0.15420578 0.0075122365
0001d0 a4 1d 5e bb dd 4b fd 3d d5 bc 79 be 1b 85 80 be
       -0.003389218 0.123679854 -0.2438844 -0.2510155
0001e0 cc 49 bd 3e 9c 56 b5 3e a8 d9 f3 bd 51 9e ae be
       0.36970365 0.3541764 -0.11906749 -0.3410516
0001f0 ac 1b cb be a8 ed ab 3d 27 5c 16 bd 8f dc 8f 3e
       -0.3966955 0.08394939 -0.036708977 0.2809796

fc2.weight f4 [64, 128]
000000 5a 3d 84 3d cf 59 32 bd f3 64 7f 3d dd 27 52 3b
       0.064570144 -0.04354268 0.062352132 0.0032067217
000010 ad ae 55 3d d0 73 82 bd 62 b4 a0 bd 6e c4 c8 bc
       0.052168537 -0.06369746 -0.07846905 -0.024507727
000020 7a 00 d0 3c 45 97 7e 3c 1c 5e 86 bd 9d 6a b4 3d
       0.025390852 0.015538995 -0.06560919 0.08809397
000030 30 19 09 bd 49 4b 3b 3d 10 78 8d 3b a3 e4 37 bd
       -0.033471286 0.045726094 0.004317291 -0.04489578
000040 f1 96 75 3d d9 59 67 bb 80 4c f0 3c 18 f5 32 3b
       0.059958402 -0.0035301356 0.029333353 0.0027306732
000050 02 b8 b1 3d a0 f5 af bd 82 44 81 3b 9e 58 ee 3c
       0.08677675 -0.08591771 0.0039449343 0.02909499
000060 ab b4 04 3d 91 2c ba 3c 7a 82 60 3c bf 77 ac 3a
       0.03239886 0.022726329 0.013702983 0.0013158246
000070 02 d7 94 3d 8e a6 55 bd d6 61 90 bd 9e a0 b4 3d
       0.07267572 -0.052160792 -0.07049911 0.08819698
000080 ad 9a ab bd e7 d2 95 3d f8 17 fe 3c bf 42 a8 bd
       -0.083791114 0.07315617 0.031017289 -0.08215856
000090 1b 6f 9a 3d d0 1f 69 bb db b6 19 bd 57 80 df bb
       0.07540723 -0.003557194 -0.0375279 -0.006820719
0000a0 5d af 92 bd bb ec a3 3c 8a 8b 42 3d 55 8a a4 bd
       -0.07162354 0.020010343 0.047496356 -0.08034197
0000b0 11 07 79 3d e0 ce 19 bd 53 54 2e 3d 36 32 92 3c
       0.060797755 -0.037550807 0.042560887 0.017846208
0000c0 37 a8 0f bd 4f 68 3b 3b 7e 53 dd bc f5 7e 59 3c
       -0.03507253 0.0028596108 -0.027017351 0.013274898
0000d0 88 b3 e9 bc b3 bb 23 3c 0f 83 37 3d 59 a3 95 3d
       -0.02852799 0.009993481 0.04480272 0.07306547
0000e0 ed 6a e8 3c 80 47 b2 b7 1c 1e 2e bc e7 8e a4 bc
       0.028371299 -2.1252548e-05 -0.010627296 -0.020087672
0000f0 d6 09 fc 3c 0d 9b 94 bc 49 f0 ad bd 1e 21 a3 3d
       0.030766409 -0.01814034 -0.084930964 0.07965301
000100 8c b1 ab 3d 1e 9e 63 bd 5d c6 e8 3b 16 a2 97 3d
       0.08383474 -0.055570714 0.007103725 0.07403962
000110 68 06 a2 bd f5 80 4a bd 10 54 92 bc 13 3f b7 bc
       -0.07911378 -0.04943939 -0.01786235 -0.022368943
000120 9f 07 87 b9 c0 33 8b 3d b2 25 46 3d be a9 a9 3d
       -0.00025754885 0.0679698 0.048375793 0.08284329
000130 7e ca ed 3c 65 0a 6e 3d 08 64 6c bd b8 29 6c bd
       0.02902722 0.05811538 -0.057712585 -0.057656974
000140 78 02 5c 3d 84 41 5d bd 2e 55 83 bd f2 6a 25 3d
       0.053713292 -0.05401756 -0.06412731 0.040385194
000150 4f 6f 71 3d 65 fd ab bd c0 49 15 bd 37 5e bf bc
       0.058944043 -0.083979405 -0.036447287 -0.023360355
000160 37 91 54 bd be 3f 43 3d de 78 3c 3d 37 1e a7 bd
       -0.0518963 0.04766821 0.046013705 -0.0816006
000170 24 80 35 bd 5c a9 a3 bc fc ff 67 bd 34 31 ae 3c
       -0.044311658 -0.019978218 -0.05664061 0.021263696
000180 74 eb b2 bd 34 7f ad 3d 00 fa 60 bd 2e 79 39 3d
       -0.08736315 0.08471528 -0.05492592 0.04528158
000190 52 e0 af 3d 99 bd 2e 3d e6 3a 18 3d 56 c8 af 3d
       0.085877076 0.042661283 0.037165545 0.08583133
0001a0 f3 d1 12 bd 7c 9c 6f 3d cd 51 57 3c 86 72 4b 3c
       -0.035844754 0.058498845 0.013142061 0.012417441
0001b0 79 4f 9e bc 38 f8 3f 3d 49 af bb 3c 97 14 94 bc
       -0.019325005 0.04686758 0.02291073 -0.018076224
0001c0 bb 78 19 bd 7e 37 ea bc 6c 5e 78 bd 81 32 fe 3c
       -0.037468653 -0.028590914 -0.060636923 0.031029942
0001d0 0b 2a 28 3d 2d ff 18 bb c9 54 0b bd 42 d8 90 3c
       0.04105572 -0.0023345456 -0.034016404 0.017681245
0001e0 50 27 e3 bc 6c 10 c9 3c 3e 28 17 bc 30 fb 0b bd
       -0.027728707 0.024543963 -0.009225903 -0.034175098
0001f0 e3 4e 0b bc 29 5a 32 3d 3c 5b be bb 22 21 ab 3c
       -0.008502695 0.043543015 -0.005809216 0.020889822
000200 0f 7e 14 bd 0b bf 84 3d 7e bb 37 3d 14 6e 43 3d
       -0.03625303 0.06481751 0.04485654 0.0477124
000210 04 36 07 3d 90 c9 d4 bb e3 fb 13 bd b3 b1 a9 3d
       0.033010498 -0.0064937547 -0.03612889 0.082858466
000220 32 c9 f4 bc 99 1f 03 3d 95 10 1c bd a4 42 55 bd
       -0.029881094 0.032012556 -0.03810175 -0.052065507
000230 40 ea 42 bd 44 20 06 3c f7 bf 80 bd 34 53 a7 3d
       -0.04758668 0.008186404 -0.062866144 0.081701666
000240 2b 01 68 bc 25 94 de 3c 2c fe 80 bd 94 ce 9d bd
       -0.014160435 0.02717025 -0.062984794 -0.07705417
000250 eb 56 a1 3d 95 a5 96 bd 34 64 21 bd d1 aa 5c 3d
       0.078779064 -0.07355801 -0.0394022 0.05387384
000260 c1 3d 6d 3c 2c 52 4b 3c a8 7c 5e 3c 72 69 2f bd
       0.014480055 0.012409728 0.013579525 -0.04282517
000270 20 cc b4 bd d0 85 34 bd bd 82 8d bc c1 d4 87 bd
       -0.08827996 -0.044072926 -0.017274255 -0.066323765
000280 41 5d f3 bc 4b cc 4d bd 2b 38 7d 3d f7 b8 a6 39
       -0.029707553 -0.050243657 0.061821144 0.00031799797
000290 f5 39 42 bd 80 11 a3 3d 75 92 b5 bb 49 41 ee 3c
       -0.047418553 0.07962322 -0.0055411407 0.029083865
0002a0 8f 1a 83 3c d6 96 bd 3b e7 74 c4 bc f8 19 49 bd
       0.016003875 0.0057858033 -0.023981525 -0.04909703
0002b0 6a c5 8e bd b1 a8 84 3d a7 7c 86 3c 5e ab c1 bc
       -0.069712475 0.06477488 0.01641686 -0.023641285
0002c0 28 38 7f 3d c2 b2 00 bc 29 4f 2d 3d 5e a5 15 3d
       0.062309414 -0.007855119 0.04231182 0.03653466
0002d0 10 f6 1e 3d b4 07 b2 bc 6c 52 a3 bd c6 8a 9b 3b
       0.038808882 -0.021732189 -0.07974705 0.0047467677
0002e0 c5 27 a5 bd b7 5f e9 bc 6d 83 86 3d 9e de 33 bc
       -0.08064226 -0.028488023 0.06568036 -0.010978369
0002f0 87 f0 ce 3b fe f6 e9 3c 5b e1 72 bc 53 f8 42 bc
       0.006315294 0.028560158 -0.014824237 -0.011900025
000300 fe 1a ab 3d 15 a6 00 3d c2 f5 a7 3d c9 b8 2f bd
       0.08354758 0.03140839 0.082011715 -0.042900834
000310 ad c3 3c 3b ac a1 8d bd d3 7c 80 bd b0 13 76 bd
       0.0028803155 -0.06915602 -0.06273808 -0.06007737
000320 3a fe b9 3c cc f6 a7 bd 88 8e 4d 3d 77 e1 85 3d
       0.022704232 -0.0820137 0.050184757 0.06537145
000330 67 25 95 3c 8c 49 97 bd 05 d5 6f bb 78 45 77 bd
       0.018206311 -0.07387075 -0.0036595475 -0.060368985
000340 7b 71 3b bd 15 4e 4c 3d d2 c0 82 3d da 7a 2c bd
       -0.04576252 0.049879152 0.06384434 -0.042109348
000350 a6 c5 a1 3d 67 8e 9e 3c 7e f5 b0 bd 08 20 00 bd
       0.078990266 0.019355012 -0.08640574 -0.031280547
000360 e7 1f b2 bc 9d a7 d5 3c 29 f1 85 3d 9c 51 06 bd
       -0.021743728 0.0260809 0.06540138 -0.032792673
000370 10 ae 17 3a 60 ff ca bc 39 90 29 bb 23 d3 b1 3c
       0.000578613 -0.024779975 -0.0025873317 0.021707123
000380 e6 de 0a bd f0 9a 73 bd f3 e0 90 3d 73 7f 30 3d
       -0.03390398 -0.05947393 0.07074156 0.043090295
000390 e3 1c 1d bd e8 9b 02 3d 76 f8 69 bd 3e 3e aa 3d
       -0.038357627 0.031886965 -0.057121716 0.08312653
0003a0 4e 72 07 bc 46 73 dc bc 64 74 62 3d 81 6e 55 3d
       -0.008266998 -0.026910435 0.05528678 0.052107338
0003b0 cb 6e 46 bd 8a 6a c8 3c 43 aa ae bd 52 f6 97 bd
       -0.048445504 0.024464864 -0.085285686 -0.07420029
0003c0 82 b0 42 bc c6 b8 db bc de 5c f1 bc 85 00 4a 3d
       -0.011882903 -0.026821505 -0.029463228 0.0493169
0003d0 de 6f 48 3d d9 c1 8f 3d 5d 3d f4 3c f0 7b 21 3b
       0.04893481 0.070193954 0.029814417 0.0024640523
0003e0 41 6b 5a 3d 8a 1b cd 3c f7 4f 92 3d 43 9a 2a bd
       0.05332494 0.025037546 0.07144158 -0.04165102
0003f0 76 67 81 bd c9 39 a3 bd a0 1f 10 3d 89 42 4e bc
       -0.06318562 -0.07970006 0.03518641 -0.012589105

fc2.bias f4 [64]
000000 fe d4 0f bd e5 a0 a0 bd 3c fd e3 bc 1e 14 2f 3d
       -0.035115235 -0.07843188 -0.027830712 0.042743795
000010 ff 11 2d bd 97 ef fa 3c ae 6a 0a 3d f9 dc 61 3d
       -0.04225349 0.030631823 0.033793144 0.055142377
000020 10 82 99 bd 17 cc a3 3d df 7b 10 bd 75 aa 00 bd
       -0.074955106 0.079979114 -0.035274383 -0.03141256
000030 39 e4 aa 3d 9f b7 b3 3d f9 b3 ae bc 60 5e ca bc
       0.08344311 0.08775257 -0.021326052 -0.024703205
000040 20 45 9e bd 65 06 2b bd c4 24 29 bd 32 80 6e 3c
       -0.07728028 -0.041754145 -0.041294828 0.014556931
000050 3b 35 35 bd 0c f2 98 bd fe d7 fe 3c 98 f9 25 bd
       -0.044240218 -0.07468042 0.031108852 -0.040521234
000060 fd 26 98 3d 96 4b a6 3c 69 fd 20 3d 5b f1 1c bd
       0.074293114 0.020299714 0.03930417 -0.038316112
000070 24 1e b9 bc 69 39 2a 3d 45 de ab bd a3 ce a2 bd
       -0.02259738 0.041558657 -0.08392004 -0.07949569
000080 17 ff 74 bd b7 5d 56 bc 7d a5 ac bc 87 83 8a bd
       -0.059813585 -0.013083867 -0.021075005 -0.06763368
000090 52 31 6c bc 82 4f 91 bd 9f e4 23 3c 06 64 63 bd
       -0.014416056 -0.07095243 0.010003238 -0.05551531
0000a0 78 30 4e bd 27 fe 00 3d 1e 6c 87 bd 72 94 ba 3c
       -0.050339192 0.03149238 -0.066124186 0.022775862
0000b0 88 50 5f 3d c8 fa 8e 3d 4e 23 9c bd f6 a5 11 3c
       0.05452016 0.069814265 -0.07623921 0.008889666
0000c0 73 3d e8 bb b8 bd 9d 3b b3 d3 89 3c ef 5e 0c bd
       -0.0070874034 0.004813876 0.016824579 -0.034270223
0000d0 0f 66 d0 3c da 20 43 3b 50 62 ac bd 9f e8 5e bd
       0.02543929 0.002977422 -0.08417189 -0.054421064
0000e0 61 f8 62 39 c0 bc f5 bc bc a3 51 3d bb cb e4 bc
       0.00021645568 -0.02999723 0.05118154 -0.027929178
0000f0 7c 2a aa bc 88 c4 2f bd 61 df 33 bd e8 a3 3d bd
       -0.020772211 -0.042912036 -0.043914203 -0.04629889

fc3.weight f4 [1, 64]
000000 64 fd 0b 3d e0 71 70 3d 3e 20 dc bd bc 33 2a 3d
       0.0341772 0.05870235 -0.10748337 0.041553244
000010 60 4a 9b bb 98 de 9b bd b2 9d 98 3d 90 1b 80 3c
       -0.004739091 -0.07610816 0.07451953 0.015638143
000020 88 da 38 bd d8 d6 d8 3c c0 4f 62 bb d0 ad 23 bd
       -0.045130283 0.026469633 -0.0034532398 -0.039960682
000030 a0 cd ed 3d f0 cf af 3d 8e 8b f3 3d 24 b7 c9 bd
       0.116114855 0.08584583 0.11891852 -0.098493844
000040 c0 c7 c5 bb dc 4c 36 bd 0c b7 12 3d e0 a1 18 bc
       -0.006035775 -0.044506893 0.0358191 -0.009315938
000050 4c d3 9e 3d 20 ec bf bd 04 77 3d 3d 42 2d ed 3d
       0.077551454 -0.09371209 0.04625608 0.11580898
000060 a8 52 f7 3c ee 7d da bd 80 0a eb bc e4 65 84 bd
       0.03019078 -0.106685504 -0.02869153 -0.064647466
000070 cc ba bb 3d 8c b8 e1 3d 4c 82 c4 bd 44 36 f4 bd
       0.09166488 0.11021528 -0.09595165 -0.11924413
000080 48 51 64 bd b8 56 9b bc f4 9d 20 bd 18 25 bd bd
       -0.05574158 -0.01896225 -0.039213136 -0.09235591
000090 8a ad ea 3d 98 54 67 bd d4 dd 77 3d 80 ee 92 bc
       0.11458881 -0.05647716 0.060514286 -0.017935991
0000a0 60 fe 50 bd 66 50 ea bd e2 31 de 3d 38 72 a3 3c
       -0.05102384 -0.11441116 0.10849358 0.019951925
0000b0 80 53 9d ba 10 85 96 3c 60 38 77 bd 68 d3 ad 3c
       -0.0012003034 0.018373996 -0.060356498 0.02121897
0000c0 36 05 b4 3d 8a 83 ef 3d e0 c5 b0 bd 78 96 a0 bd
       0.087900564 0.11695011 -0.08631492 -0.078412
0000d0 54 5e 98 bd 3e d9 88 bd be 2e ec 3d b8 7a 9b bc
       -0.07439867 -0.06682061 0.11532353 -0.018979415
0000e0 f6 d1 9b bd 90 d0 21 3d 14 f8 86 bd b2 ab 86 3d
       -0.07608406 0.03950554 -0.06590286 0.06575717
0000f0 f0 87 42 bc a4 8d 83 bd 90 2a 32 bd 34 c0 82 3d
       -0.01187323 -0.064235 -0.043497622 0.06384316
